…
170500096/170498071 [==============================] - 22s 0us/step
2021-02-07 20:57:06.083427: I tensorflow/core/platform/cpu_feature_guard.cc:142] This TensorFlow binary is optimized with oneAPI Deep Neural Network Library (oneDNN) to use the following CPU instructions in performance-critical operations:  AVX2 FMA
To enable them in other operations, rebuild TensorFlow with the appropriate compiler flags.
Model: "sequential"
_________________________________________________________________
Layer (type)                 Output Shape              Param #   
=================================================================
conv2d (Conv2D)              (None, 26, 26, 6)         888       
_________________________________________________________________
max_pooling2d (MaxPooling2D) (None, 13, 13, 6)         0         
_________________________________________________________________
conv2d_1 (Conv2D)            (None, 9, 9, 12)          1812      
_________________________________________________________________
max_pooling2d_1 (MaxPooling2 (None, 4, 4, 12)          0         
_________________________________________________________________
flatten (Flatten)            (None, 192)               0         
_________________________________________________________________
dense (Dense)                (None, 120)               23160     
_________________________________________________________________
dense_1 (Dense)              (None, 84)                10164     
_________________________________________________________________
dense_2 (Dense)              (None, 10)                850       
=================================================================
Total params: 36,874
Trainable params: 36,874
Non-trainable params: 0
_________________________________________________________________

2021-02-07 20:57:10.068510: I tensorflow/compiler/mlir/mlir_graph_optimization_pass.cc:145] None of the MLIR Optimization Passes are enabled (registered 2)
Epoch 1/20
12500/12500 [==============================] - 99s 8ms/step - loss: 0.0871 - accuracy: 0.2079 - val_loss: 0.0810 - val_accuracy: 0.3166
…
