Model: "sequential"
Loss: "mse"
metrics = ['accuracy']
optimizer = optimizers.SGD(lr=0.001, momentum=0.9)
_________________________________________________________________
Layer (type)                 Output Shape              Param #
=================================================================
conv2d (Conv2D)              (None, 28, 28, 6)         456
_________________________________________________________________
max_pooling2d (MaxPooling2D) (None, 14, 14, 6)         0
_________________________________________________________________
conv2d_1 (Conv2D)            (None, 10, 10, 16)        2416
_________________________________________________________________
max_pooling2d_1 (MaxPooling2 (None, 5, 5, 16)          0
_________________________________________________________________
flatten (Flatten)            (None, 400)               0
_________________________________________________________________
dense (Dense)                (None, 120)               48120
_________________________________________________________________
dense_1 (Dense)              (None, 84)                10164
_________________________________________________________________
dense_2 (Dense)              (None, 10)                850
=================================================================
Total params: 62,006
Trainable params: 62,006
Non-trainable params: 0
_________________________________________________________________

2021-02-04 00:04:54.815631: I tensorflow/compiler/mlir/mlir_graph_optimization_pass.cc:116] None of the MLIR optimization passes are enabled (registered 2)
Epoch 1/20
12500/12500 [==============================] - 36s 3ms/step - loss: 0.0879 - accuracy: 0.1888 - val_loss: 0.0813 - val_accuracy: 0.3223
…
