…
[INFO] Loading Traning and Test Datasets.
2021-02-04 00:34:28.370085: I tensorflow/core/platform/cpu_feature_guard.cc:142] This TensorFlow binary is optimized with oneAPI Deep Neural Network Library (oneDNN) to use the following CPU instructions in performance-critical operations:  AVX2 FMA
To enable them in other operations, rebuild TensorFlow with the appropriate compiler flags.
Model: "sequential"
_________________________________________________________________
Layer (type)                 Output Shape              Param #
=================================================================
conv2d (Conv2D)              (None, 28, 28, 6)         456
_________________________________________________________________
max_pooling2d (MaxPooling2D) (None, 14, 14, 6)         0
_________________________________________________________________
conv2d_1 (Conv2D)            (None, 10, 10, 16)        2416
_________________________________________________________________
max_pooling2d_1 (MaxPooling2 (None, 5, 5, 16)          0
_________________________________________________________________
flatten (Flatten)            (None, 400)               0
_________________________________________________________________
dense (Dense)                (None, 120)               48120
_________________________________________________________________
dense_1 (Dense)              (None, 84)                10164
_________________________________________________________________
dense_2 (Dense)              (None, 10)                850
=================================================================
Total params: 62,006
Trainable params: 62,006
Non-trainable params: 0
_________________________________________________________________

2021-02-04 00:34:28.848343: I tensorflow/compiler/mlir/mlir_graph_optimization_pass.cc:116] None of the MLIR optimization passes are enabled (registered 2)
Epoch 1/50
12500/12500 [==============================] - 41s 3ms/step - loss: 0.0870 - accuracy: 0.2183 - val_loss: 0.0800 - val_accuracy: 0.3382
…
